model/snr=6.ckpt (torch_old, 869713 bytes, 117 tensors)

in_conv.conv_conv.0.weight f4 [2, 1, 3, 3]
0	0x3db51599	0.0884201
1	0x3dc445ba	0.09583612
2	0xbd18a4d2	-0.03726656
3	0xbf5d39fc	-0.864166
4	0xbea13599	-0.31486204
5	0x3cfef5b4	0.03112302
6	0x3e46665c	0.19374985
7	0x3db60ebf	0.08889531
8	0xbd08e67c	-0.033422932
9	0xbe13f826	-0.1445013
10	0xbd5b6ee3	-0.053572547
11	0x3d431a23	0.047632348
12	0x3d87156a	0.06595881
13	0x3f163ea6	0.58689344
14	0xbd88daf2	-0.066823855
15	0xbe9104a3	-0.2832385
16	0x3cb96f46	0.022636067
17	0xbdd2251a	-0.10260983

in_conv.conv_conv.0.bias f4 [2]
0	0x3e240378	0.16016948
1	0x3d87ae91	0.06625093

in_conv.conv_conv.1.weight f4 [2]
0	0x3f9863bb	1.1905435
1	0x3f08dca2	0.5346166

in_conv.conv_conv.1.bias f4 [2]
0	0xbe4b3e17	-0.19847904
1	0x3ef7e16b	0.48414168

in_conv.conv_conv.1.running_mean f4 [2]
0	0x3e24f730	0.1610992
1	0x3d86e08a	0.06585796

in_conv.conv_conv.1.running_var f4 [2]
0	0x3f19fe3c	0.60153556
1	0x3cfea0ec	0.031082593

in_conv.conv_conv.4.weight f4 [2, 2, 3, 3]
0	0xbde3a945	-0.1111627
1	0x3c7f5856	0.015585026
2	0xbd36c636	-0.044622622
3	0xbe09f6a0	-0.13472986
4	0xbce28e4e	-0.027655747
5	0x3e47e532	0.19521025
6	0xbe31d4fa	-0.173664
7	0xbdddd4d5	-0.1083161
8	0x3e3e7ab8	0.18601501
9	0xbce0849a	-0.02740698
10	0xbd8c9017	-0.068634205
11	0x39d25eae	0.00040124863
12	0xbbffc501	-0.007805467
13	0xbd926e57	-0.07149952
14	0xbf084b21	-0.5323964
15	0xbc9dbef1	-0.019256087
16	0xbd99268c	-0.07478055
17	0xbddfb86c	-0.109238476
18	0xbc826291	-0.01591614
19	0xbe77f35b	-0.24213926
20	0xbe21c1e8	-0.15796626
21	0xbe0f4f61	-0.13995124
22	0xbec71eb6	-0.38890618
23	0xbeb1c53a	-0.34720784
24	0xbd42307e	-0.047409527
25	0xbd843ef2	-0.06457318
26	0xbe6da8f2	-0.23208979
27	0x3dd3bef4	0.10339156
28	0x3e6a611a	0.22888604
29	0x3d60227b	0.054720383
30	0x3e1842f1	0.14869286
31	0x3e76a2fc	0.24085611
32	0x3e67de5a	0.22643414
33	0x3de12555	0.10993449
34	0x3bc392ba	0.005968419
35	0x3dcc87db	0.0998685

in_conv.conv_conv.4.bias f4 [2]
0	0xbea20d9d	-0.3165101
1	0x3db89c65	0.09014205

in_conv.conv_conv.5.weight f4 [2]
0	0x3eeb91f8	0.46009803
1	0x3f0eff22	0.5585805

in_conv.conv_conv.5.bias f4 [2]
0	0x3eb4a225	0.35279956
1	0x3f828e7b	1.0199732

in_conv.conv_conv.5.running_mean f4 [2]
0	0xbf64241e	-0.8911761
1	0x3ccc2094	0.024917878

in_conv.conv_conv.5.running_var f4 [2]
0	0x3da559ea	0.0807379
1	0x3fe70b3a	1.8050301

down1.maxpool_conv.1.conv_conv.0.weight f4 [8, 2, 3, 3]
0	0xbe942810	-0.28936815
1	0x3e490d06	0.19633874
2	0xbe3d7e90	-0.18505311
3	0x3e85fd99	0.26170042
4	0x3e110e1d	0.1416554
5	0xbe66f3cf	-0.22553943
6	0xbd3f2906	-0.046669982
7	0xbd052003	-0.032501232
8	0x3d63efc7	0.05564859
9	0xbe18a800	-0.14907837
10	0x3e025b76	0.12730202
11	0x3e528554	0.20558673
12	0x3e0c83ed	0.137222
13	0xbe3a7c26	-0.18211421
14	0xbebf7e7e	-0.37401193
15	0xbba4be90	-0.0050275996
16	0xbd8d78fe	-0.06907843
17	0xbd6f1951	-0.058373753
18	0xbcd7f7d7	-0.026363296
19	0x3bc69ac3	0.0060609295
20	0xbd90cf72	-0.07070817
21	0xbde6f488	-0.112771094
22	0x3ea3bbc6	0.31979197
23	0x3d0e35b4	0.034719184
24	0xbd657150	-0.056016266
25	0x3c8fdbb1	0.017560812
26	0x3c27e782	0.010248067
27	0x3dbb4475	0.091439165
28	0x3dbbe6c5	0.09174875
29	0x3eb8e60a	0.36113006
30	0x3e282204	0.16419226
31	0x3c29626f	0.01033841
32	0xbeebfe18	-0.46092296
33	0x3bd9c68a	0.006645982
34	0xbe1ea4fb	-0.15492623
35	0x3daa8b6f	0.08327376
36	0x3e83da01	0.2575226
37	0x3dfd2936	0.12361376
38	0xbb9c9c39	-0.0047793654
39	0xbe0a49b7	-0.13504682
40	0x3e2c1508	0.16804898
41	0xbd7144c9	-0.05890349
42	0xbd7f4ab6	-0.06232711
43	0x3d1878c1	0.037224535
44	0xbc86b724	-0.01644475
45	0x3ce6f457	0.028192682
46	0xbd88a75d	-0.06672547
47	0x3c8a9187	0.016915096
48	0xbea3e1d0	-0.3200822
49	0xbea0c98f	-0.31403777
50	0x3ec2723a	0.37977773
51	0xbd7cedf5	-0.06175037
52	0xbd11a098	-0.035553545
53	0x3d440242	0.047853716
54	0xbc916172	-0.01774666
55	0x3db2d04a	0.08731134
56	0x3e05231c	0.13001674
57	0x3e6122b1	0.2198589
58	0x3e20e45f	0.15712117
59	0x3dcf3779	0.101180024
60	0xbe8811da	-0.2657612
61	0x3d336edb	0.043806892
62	0x3c288e28	0.010287799
63	0xbd1c8fd3	-0.0382231
64	0xbe0330d4	-0.12811595
65	0xbe25c42f	-0.1618812
66	0xbe0710c7	-0.13189994
67	0xbe89416d	-0.26807728
68	0xbe1443f4	-0.14479047
69	0x3e3a2f39	0.18182077
70	0x3e45755f	0.19283055
71	0x3e98c7c6	0.29839915
72	0xbcb5f0bc	-0.022209518
73	0x3d984f86	0.07437043
74	0x3c01a125	0.007911955
75	0x3d3bbad3	0.045832466
76	0xbecdd778	-0.40203452
77	0x3d484fa4	0.048904076
78	0x3d4ff292	0.050768442
79	0xbd678696	-0.056524836
80	0xbde31e1b	-0.110897265
81	0xbdaab902	-0.08336069
82	0xbe90d51f	-0.28287598
83	0x3dfcdfef	0.123473994
84	0xbe8a54d1	-0.27017835
85	0x3da2f719	0.079572864
86	0x3e8d4bba	0.27596837
87	0x3df5ec57	0.12007969
88	0xbd89d23a	-0.06729551
89	0xbe23f84d	-0.16012688
90	0xbc84d96e	-0.01621696
91	0x3e03198f	0.12802719
92	0x3d5e91d0	0.054338276
93	0x3d83994d	0.06425724
94	0xbd54b225	-0.051927704
95	0x3e33bf62	0.17553475
96	0x3e0e8583	0.13918118
97	0xbc22fe16	-0.009948274
98	0xbd26248d	-0.0405622
99	0xbda2dd63	-0.079523824
100	0xbdb5d38e	-0.088782415
101	0x3e370222	0.17871907
102	0x3e04b59a	0.129599
103	0x3e4b5f6f	0.19860624
104	0xbe8a82ce	-0.2705292
105	0xbdb8ddbf	-0.0902667
106	0x3f016102	0.5053865
107	0x3e8eda1a	0.27900773
108	0xbb3ef22b	-0.0029136043
109	0x3c0f9092	0.008762496
110	0xbd89a588	-0.06721026
111	0x3bfadfe4	0.0076560844
112	0xbe828bc5	-0.2549726
113	0x3c10c031	0.0088348845
114	0xbdda7140	-0.10666132
115	0x3c194bad	0.009356421
116	0xbdcdf4f1	-0.100564845
117	0xbd0ef00d	-0.0348969
118	0x3d9a370a	0.07530029
119	0xbdae1562	-0.08500172
120	0xbdab816e	-0.08374296
121	0x3f4a083f	0.7891883
122	0xbd92eaa9	-0.07173664
123	0x3e1038ce	0.1408417
124	0x3e6b38dc	0.22970909
125	0x3db3bbdd	0.087760665
126	0xbe4473d2	-0.19184807
127	0xbd8b1558	-0.0679118
128	0x3e22b26a	0.15888372
129	0x3e448aed	0.19193621
130	0x3e3b5178	0.18292797
131	0x3e1b2a2b	0.15152805
132	0xbd9ebc70	-0.07750785
133	0x3dbcc03d	0.09216354
134	0xbdc781d5	-0.0974156
135	0x3d95d3c8	0.07315785
136	0xbe1154db	-0.14192526
137	0x3da78f6b	0.08181652
138	0xbe82f3f8	-0.25576758
139	0xbe97a7e0	-0.29620266
140	0x3da8caf2	0.08241834
141	0x3c6aced6	0.01433154
142	0xbeaa480e	-0.33258098
143	0xbe4cd783	-0.20004086

down1.maxpool_conv.1.conv_conv.0.bias f4 [8]
0	0x3dcb1d99	0.09917755
1	0x3e32a23f	0.17444704
2	0x3e8d9fbe	0.27660936
3	0xbe8cb267	-0.2747986
4	0xbeb3369c	-0.350026
5	0x3dfcb2ac	0.123387665
6	0xbeaeb295	-0.34120622
7	0x3d04368b	0.03227858

down1.maxpool_conv.1.conv_conv.1.weight f4 [8]
0	0x3f622ecc	0.88352656
1	0x3f410ade	0.75407207
2	0x3f6b7906	0.9198154
3	0x3f25187f	0.64490503
4	0x3f42e41c	0.7612932
5	0x3f8a42f9	1.0801688
6	0x3fb050bd	1.3774639
7	0x3f80e76d	1.0070626

down1.maxpool_conv.1.conv_conv.1.bias f4 [8]
0	0xbede2d19	-0.43393782
1	0x3e3a3077	0.1818255
2	0xbe5240ca	-0.20532528
3	0x3e4f8117	0.20264088
4	0x3e262a93	0.16227178
5	0x3b08f06d	0.0020895258
6	0x390af965	0.00013253612
7	0xbe10ba48	-0.1413356

down1.maxpool_conv.1.conv_conv.1.running_mean f4 [8]
0	0xbebe9dad	-0.37229672
1	0x3ee7c2c9	0.45265797
2	0x3dcf3964	0.10118368
3	0xbe6aae6e	-0.22918102
4	0xbf59add1	-0.8503085
5	0x3f9ab6e7	1.2087067
6	0x3f05d270	0.5227423
7	0xbf561c25	-0.83636695

down1.maxpool_conv.1.conv_conv.1.running_var f4 [8]
0	0x3d63ef6e	0.05564826
1	0x3d09dc88	0.03365758
2	0x3d621999	0.055200193
3	0x3d9719ae	0.07377945
4	0x3d16a29c	0.03677617
5	0x3df778d1	0.12083591
6	0x3ea53aa5	0.32271305
7	0x3e8596ae	0.26091522

down1.maxpool_conv.1.conv_conv.4.weight f4 [8, 8, 3, 3]
0	0x3d6c5bb6	0.05770465
1	0xbdae4385	-0.08508972
2	0x3d8586b1	0.06519831
3	0xbeae6df6	-0.3406827
4	0xbe0d51ee	-0.13800785
5	0x3e6a086a	0.22854772
6	0x3d958900	0.07301521
7	0x3e334abe	0.1750898
8	0x3c2bb642	0.010480465
9	0xbce81d40	-0.02833426
10	0x3e05ca0b	0.13065355
11	0x3d868e57	0.06570118
12	0xbe136411	-0.14393641
13	0x3dcd527d	0.10025499
14	0x3e115df3	0.14195995
15	0x3e7ca0e1	0.24670745
16	0x3e7ce5f6	0.24697098
17	0x3c917fde	0.017761167
18	0xbe55b021	-0.20867969
19	0xbd4ab3dd	-0.049487937
20	0xbe454b37	-0.19266973
21	0x3d994237	0.074833326
22	0xbe2db7a8	-0.1696459
23	0xbd35fd97	-0.044431295
24	0xbe2dc3f6	-0.16969284
25	0xbde27ece	-0.11059342
26	0x3c8f4d38	0.017492875
27	0x3d956c7e	0.07296084
28	0xbb0a98ea	-0.0021148273
29	0xba38d270	-0.00070504006
30	0xbd09b3bb	-0.03361867
31	0x3e282dbb	0.16423695
32	0x3c7ae97c	0.015314456
33	0xbe159d83	-0.14610867
34	0xbc9ad043	-0.018898135
35	0xbd6c6a5f	-0.05771863
36	0x3d810ca5	0.0630124
37	0x3d4a3291	0.04936463
38	0x3e3f877e	0.1870403
39	0x3e35da22	0.17758992
40	0xbd880388	-0.066412985
41	0x3c44f24f	0.0120206615
42	0xbd7a86ba	-0.06116364
43	0x3d0323f0	0.032016695
44	0x3e17ef8b	0.14837472
45	0x3e3832bd	0.17988105
46	0x3ddb9641	0.10722018
47	0xbe6fdf17	-0.23424946
48	0x3e0701d3	0.1318429
49	0x3ccefd77	0.025267346
50	0xbcccc0d0	-0.024994284
51	0x3c843d57	0.01614253
52	0x3ddcc142	0.107790485
53	0x3dea175d	0.114302374
54	0x3ce74439	0.028230773
55	0xbe55bf16	-0.20873675
56	0xbe63ac2f	-0.22233652
57	0x3dd47bc0	0.10375166
58	0xbdc76fc1	-0.09738112
59	0xbe93844c	-0.28811872
60	0x3d49ac65	0.049236674
61	0x3cee03d6	0.029054563
62	0xbe9ba2c4	-0.30397618
63	0xbdb6c078	-0.08923429
64	0x3d15d7b0	0.03658265
65	0xb9fa5dea	-0.00047753687
66	0xbe347405	-0.17622383
67	0x3c9aec38	0.018911466
68	0x3e4b0155	0.19824727
69	0x3d2d6820	0.04233563
70	0x3cf8c728	0.030368403
71	0xbce99fda	-0.028518606
72	0xbe44b3fa	-0.1920928
73	0x3cd68b05	0.026189337
74	0x3dbcc372	0.09216966
75	0xbcd6755a	-0.026179004
76	0xbe10ec82	-0.1415272
77	0x3ca5c751	0.020236643
78	0xbbc201c8	-0.0059206225
79	0x3d38f1ff	0.04515266
80	0x3cea1156	0.02857272
81	0x3d139614	0.036031798
82	0x3dee1cb6	0.1162657
83	0xbc7a13d4	-0.015263516
84	0x3e56476c	0.20925683
85	0xbee8b260	-0.4544859
86	0xbac19c63	-0.0014771338
87	0x3b5d7c89	0.0033796153
88	0x3c528c11	0.012850777
89	0xbd2bbfa3	-0.041930806
90	0xbdb7817d	-0.08960245
91	0x3c9dfcd2	0.019285593
92	0x3d287ca2	0.041134484
93	0x3dac267f	0.0840578
94	0x3e073681	0.13204385
95	0x3d6f037b	0.05835293
96	0xbd52e178	-0.051484555
97	0x3db49d35	0.08819047
98	0x3b35984f	0.0027709191
99	0xbd33c52c	-0.04388921
100	0x3e849c4e	0.259005
101	0x3d92b49f	0.07163357
102	0xbd5816a3	-0.052755963
103	0xbc532b22	-0.012888702
104	0x3e33c2f3	0.17554836
105	0xbd74da35	-0.05977841
106	0xbac3f30b	-0.0014949752
107	0x3c4e1ea7	0.01258055
108	0xbccf7569	-0.02532454
109	0xbc9ed1f4	-0.019387223
110	0xbd3b1e06	-0.04568293
111	0x3dad200b	0.08453377
112	0x3e1db6c6	0.15401754
113	0xbdb5aae8	-0.088704884
114	0xbcb50cd7	-0.02210085
115	0xbd9a4c85	-0.07534126
116	0xbd552a06	-0.05204203
117	0x3d8e32e9	0.06943304
118	0x3e5a3fa0	0.21313334
119	0xbe34851d	-0.17628904
120	0xbe170694	-0.14748603
121	0xbe77559f	-0.24153756
122	0xbd86a103	-0.06573679
123	0xbd71cb28	-0.059031636
124	0xbd470666	-0.048590086
125	0xbe301b6a	-0.17197958
126	0x3e25bba3	0.16184859
127	0x3ecb0d60	0.39658642
128	0xbcf8bcf4	-0.030363537
129	0x3c33c728	0.0109727755
130	0x3e487dc5	0.19579227
131	0x3dac248c	0.08405408
132	0x3dc0e82c	0.09419283
133	0x3e47a9b7	0.19498335
134	0x3da8824f	0.082279794
135	0xbdd2c3ac	-0.10291228
136	0xbd2ebdfb	-0.04266165
137	0x3d4ddc8c	0.050259158
138	0x3ea58109	0.3232501
139	0x3d3dc360	0.046328902
140	0x3e08f040	0.13372898
141	0x3d36287f	0.044472214
142	0x3d1c528b	0.038164657
143	0x3d72769f	0.059195157
144	0x3e23b345	0.15986355
145	0x3deb0d34	0.11477128
146	0xbddd1c9e	-0.10796474
147	0x3daff4c5	0.08591608
148	0xbdd464a9	-0.10370762
149	0xbe677c68	-0.22606051
150	0xbcfd31e7	-0.030907584
151	0x3b1e4f6c	0.0024156226
152	0xbdc480ad	-0.095948555
153	0xba92e8c5	-0.0011208287
154	0x3ba5d20b	0.0050604395
155	0xbdd8e957	-0.10591381
156	0xbded1ef8	-0.115781724
157	0xbd12138e	-0.03566318
158	0xbe065049	-0.13116564
159	0xbd11040d	-0.035404254
160	0x3dcf118c	0.10110769
161	0x3e1ab1f3	0.15106945
162	0xbbebaccf	-0.0071922312
163	0x3cd0f78c	0.025508665
164	0xbe06e44e	-0.13173029
165	0x3dc7980f	0.097458
166	0x3d8636d3	0.06553426
167	0xbd5b0903	-0.05347539
168	0xbd2d7020	-0.04234326
169	0x3e25d8a3	0.16195922
170	0x3e1668ab	0.14688365
171	0xbd20d75a	-0.039267875
172	0x3d99bde1	0.0750692
173	0xbe3746f8	-0.17898166
174	0xbdd9f351	-0.10642112
175	0xbc3c08eb	-0.011476736
176	0xbe0b31db	-0.13593237
177	0xbc76cfde	-0.015064208
178	0x3d91695f	0.07100176
179	0x3c89430d	0.016755605
180	0x3d93fb3a	0.07225652
181	0xbdb1c5bd	-0.08680294
182	0xbd5c416a	-0.05377332
183	0xbd5c8f6c	-0.053847715
184	0x3e00cbd4	0.12577754
185	0xbd61ec0c	-0.055156752
186	0x3b8e47ae	0.004342041
187	0x3d43ac7f	0.047771927
188	0xbe2e45ac	-0.17018765
189	0xbd87e485	-0.066353835
190	0x3e2f1a92	0.1709998
191	0x3da44d12	0.080225125
192	0xbd417355	-0.04722913
193	0x3e95fafa	0.29293042
194	0x3ee25cbf	0.44211385
195	0x3cff53a2	0.031167809
196	0x3e4e86cf	0.20168613
197	0x3c571a04	0.013128761
198	0xbc079def	-0.0082774
199	0x3df79809	0.12089545
200	0x3ea52571	0.32255128
201	0x3d596f00	0.053084373
202	0x3d3410a2	0.043961175
203	0x3ea55e1b	0.3229836
204	0x3e50705a	0.20355359
205	0x3de91787	0.113814406
206	0x3d2c2a5b	0.04203258
207	0xbd4cb8ec	-0.049981043
208	0x3d0bfc13	0.034175944
209	0xbe08baa7	-0.13352452
210	0xbc32922b	-0.010899107
211	0x3dc93d38	0.0982613
212	0xbd3278ca	-0.043572225
213	0x3d757b12	0.059931822
214	0x3dacc870	0.08436668
215	0xbdfa5e74	-0.12225047
216	0xbcdfb2c7	-0.027306927
217	0xbc906fbe	-0.017631408
218	0x3c9c538d	0.019082809
219	0xbd24a448	-0.040195733
220	0x3dc3a4df	0.09552931
221	0x3ce6921b	0.02814584
222	0xbe2b971e	-0.16756865
223	0xbd73ed3f	-0.059552427
224	0xbd936c0a	-0.07198341
225	0x3bc53914	0.006018767
226	0xbd273d45	-0.040829916
227	0xbb096046	-0.0020961924
228	0xbdc54692	-0.09632601
229	0xbda4e266	-0.080509946
230	0x3e2050fc	0.15655893
231	0xb93460ae	-0.00017202154
232	0x3a51499f	0.00079836877
233	0x3d1f27c2	0.038856275
234	0xbd1194b6	-0.035542212
235	0x3cc7a765	0.024371812
236	0x3c3563b1	0.011071132
237	0xbe2e2aa4	-0.17008454
238	0x3d6f1ef2	0.05837912
239	0x3df8a0cc	0.121400446
240	0xbe201ef0	-0.15636802
241	0xbc335cdf	-0.010947435
242	0xbd9d5b23	-0.076833986
243	0x3d9b3975	0.075793184
244	0x3d875722	0.06608416
245	0xbb1fe835	-0.002439988
246	0x3e155593	0.14583425
247	0x3d82b79d	0.06382678
248	0x3dfc0a1a	0.12306614
249	0x3e39d674	0.18148214
250	0xbd47da89	-0.048792396
251	0xbe04cf23	-0.12969641
252	0xbdab9371	-0.083777316
253	0xbdb7eb7e	-0.089804634
254	0xbd5ab9eb	-0.05339996
255	0xbd5a0234	-0.053224757

down1.maxpool_conv.1.conv_conv.4.bias f4 [8]
0	0xbdf44bcd	-0.1192852
1	0xbb9d3f12	-0.0047987783
2	0xbdf06789	-0.11738498
3	0x3c5f94e7	0.013646341
4	0x3da10cdb	0.0786378
5	0xbcec815c	-0.028870277
6	0x3df7b2b0	0.12094629
7	0xbda862d4	-0.08221975

down1.maxpool_conv.1.conv_conv.5.weight f4 [8]
0	0x3f1c31a1	0.6101323
1	0x3f471587	0.77767223
2	0x3f9c77cc	1.2224059
3	0x3f380e3c	0.7189672
4	0x3f9c3057	1.2202252
5	0x3f4fdb57	0.8119406
6	0x3f8595ba	1.0436318
7	0x3f3730d2	0.7155887

down1.maxpool_conv.1.conv_conv.5.bias f4 [8]
0	0x3e820a21	0.25398353
1	0xbe0bd3fa	-0.13655081
2	0xbde288ee	-0.110612735
3	0x3ebbda04	0.3668977
4	0x3eeedd99	0.4665344
5	0xbd002698	-0.031286806
6	0xbe2eac16	-0.17057833
7	0x3e6506ea	0.22365919

down1.maxpool_conv.1.conv_conv.5.running_mean f4 [8]
0	0xbe767335	-0.24067385
1	0x3f3b70e9	0.7321916
2	0x3f62d5c4	0.8860743
3	0x3ea07082	0.31335837
4	0xbd1021eb	-0.035188597
5	0xbe36cfca	-0.17852703
6	0x3dd6fbcb	0.104972444
7	0xbef0be47	-0.4702017

down1.maxpool_conv.1.conv_conv.5.running_var f4 [8]
0	0x3ec85be6	0.39132613
1	0x3e660b1c	0.22465175
2	0x3f89b6fe	1.075897
3	0x3df1b389	0.11801822
4	0x3fcbf73a	1.5934823
5	0x3e280f07	0.16411982
6	0x3f5742aa	0.84086096
7	0x3ec5db5e	0.38643926

down2.maxpool_conv.1.conv_conv.0.weight f4 [32, 8, 3, 3]
0	0xbdc3e6c5	-0.095655
1	0x3cde9236	0.027169328
2	0x3c8e5b46	0.017377507
3	0x3e1cfc68	0.1533066
4	0x3dc18cf5	0.094507135
5	0xbd803ab0	-0.06261194
6	0xbda42e7d	-0.080166794
7	0xbd7c4414	-0.06158836
8	0x3d588aec	0.05286686
9	0xbe537863	-0.20651393
10	0xbdae0a8a	-0.08498104
11	0x3c02a61f	0.007974177
12	0xbd05548a	-0.032551326
13	0x3daad6cc	0.083417505
14	0x3da36e99	0.07980079
15	0x3d826274	0.06366435
16	0xbcc28e8d	-0.023749614
17	0xbd904240	-0.07043886
18	0x3e162839	0.14663781
19	0x3eabc55c	0.3354901
20	0xbd8cdc7a	-0.0687799
21	0x3e9f6d1a	0.31137925
22	0x3f01d35d	0.5071314
23	0x3c9cb509	0.019129293
24	0xbd8a6c66	-0.067589566
25	0xbe25a16c	-0.16174859
26	0xbe39ae01	-0.18132783
27	0xbcde19b8	-0.027111873
28	0x3e3081c2	0.17236999
29	0x3c7b15b1	0.015324996
30	0x3d6d01aa	0.057862915
31	0x3eb8c89b	0.3609055
32	0x3ce6de92	0.028182302
33	0xbc4404ab	-0.011964004
34	0x3dd7b2a7	0.10532122
35	0xbd8ed056	-0.06973331
36	0x3b5bf6e1	0.00335639
37	0x3dc72dc1	0.09725524
38	0xbd0a21ec	-0.033723757
39	0xbddedf21	-0.10882402
40	0x3dbcb6b8	0.09214538
41	0xbde09bb4	-0.10967198
42	0xbca35e64	-0.01994247
43	0x3d3618a8	0.044457108
44	0xbd34034c	-0.043948457
45	0x3c7866d3	0.015161234
46	0x3d32909e	0.04359495
47	0x3e0db82b	0.13839786
48	0xbc12ae33	-0.008952665
49	0xbd36d198	-0.044633478
50	0x3c8fa0a5	0.017532656
51	0xbb179e8a	-0.0023135268
52	0x3d88d59c	0.06681368
53	0x3cfdd106	0.03098346
54	0xbea722f3	-0.32643852
55	0x3db15530	0.08658826
56	0x3e62c084	0.22143751
57	0xbe7da0ac	-0.24768323
58	0xbe04eb55	-0.12980397
59	0x3e142700	0.14468002
60	0xbe1ef62a	-0.15523592
61	0xbde8e52e	-0.113718376
62	0x3e336b95	0.17521508
63	0xbd9081ad	-0.07055984
64	0x3da6c947	0.08143859
65	0x3d329ec6	0.04360845
66	0xbddfa418	-0.1091997
67	0xbe07262e	-0.13198158
68	0xbc5883aa	-0.013214985
69	0xbde44f85	-0.1114798
70	0xbe00a92b	-0.12564532
71	0xbe1de385	-0.15418823
72	0x3cd40760	0.025882423
73	0x3d9958e8	0.07487661
74	0x3da7b656	0.08189075
75	0xbb8e9e44	-0.004352363
76	0xbdf6fa00	-0.120594025
77	0xbd772cf8	-0.06034562
78	0xbdde5dbf	-0.108577244
79	0xbe0c6d95	-0.13713677
80	0xbdb701e5	-0.08935908
81	0xbc958466	-0.018251609
82	0xbd853131	-0.06503523
83	0xbd8b1096	-0.06790273
84	0x3d641fd0	0.0556944
85	0xbd4a1682	-0.04933787
86	0xbe0ebf98	-0.13940275
87	0xbc2468da	-0.010034764
88	0xbc177791	-0.009244815
89	0xbd31df20	-0.04342568
90	0x3d407f1f	0.046996232
91	0x3eb42fd0	0.35192728
92	0xbd8e4910	-0.06947529
93	0x3e163eec	0.1467244
94	0x3e99bd2b	0.30027136
95	0x3d81f8a0	0.063462496
96	0xbd2dd8a5	-0.042442936
97	0x3d9b5e52	0.075863495
98	0xbc950a75	-0.018193463
99	0x3e16c187	0.14722262
100	0x3d43cec3	0.047804605
101	0xbe31f283	-0.17377667
102	0x3e7c515b	0.2464041
103	0x3e67fdb2	0.22655371
104	0xbe5e1d34	-0.21690828
105	0x3d2db07a	0.04240463
106	0x3d18ef7a	0.037337758
107	0xbd846276	-0.064640924
108	0xbea9cc7f	-0.3316383
109	0xbe1949ff	-0.14969634
110	0xbdb8aec0	-0.09017706
111	0xbe3975b7	-0.18111311
112	0xbdcf1937	-0.10112231
113	0xbd14e9fd	-0.03635596
114	0x3d18ad03	0.03727437
115	0x3da1a220	0.07892251
116	0x3dc9d843	0.09855702
117	0x3c68ac22	0.014201196
118	0x3dda0fc2	0.10647537
119	0xbc8e72aa	-0.01738866
120	0xbd115dbd	-0.035489786
121	0x3df0ca5d	0.11757348
122	0xbdf326e2	-0.11872651
123	0xbda88a36	-0.08229487
124	0xbc4cb658	-0.012494646
125	0x3c5e6821	0.013574631
126	0xbd37c4ce	-0.044865422
127	0x3e841f70	0.25805235
128	0x3d2b4992	0.04181821
129	0x3d237ba1	0.039912824
130	0x3e814f57	0.25255844
131	0xbba4964c	-0.0050227996
132	0xbdd53514	-0.104105145
133	0xbe1ae9ef	-0.15128301
134	0xbdb03304	-0.086034805
135	0xbcc7f6e9	-0.024409728
136	0x3c839975	0.016064385
137	0xbe1f07b9	-0.1553029
138	0x3ce40afb	0.027837267
139	0x3e1babe9	0.15202297
140	0xbe27015a	-0.1630911
141	0x3c0cc68d	0.00859226
142	0x3daae3db	0.08344241
143	0xbd231904	-0.03981878
144	0x3dc21aef	0.094777934
145	0x3cecc653	0.028903162
146	0x3db84985	0.08998398
147	0x3ce9af22	0.028525893
148	0x3df88b6a	0.12135966
149	0xbcbedb83	-0.02329803
150	0x3d7315ec	0.05934708
151	0x3da17b70	0.07884872
152	0xbdb8a735	-0.09016267
153	0xbdcd9272	-0.10037698
154	0x3dbe9b02	0.09306909
155	0xbc597cd6	-0.013274392
156	0xbe366e41	-0.17815496
157	0xbe40a2c8	-0.18812096
158	0xbcd186ac	-0.025576912
159	0xbe0463ba	-0.12928668
160	0xbdd2220d	-0.10260401
161	0xbe76f33f	-0.24116229
162	0xbd4b9918	-0.04970655
163	0xbd5efe18	-0.05444154
164	0x3de9326a	0.11386569
165	0xbd96ab94	-0.07356945
166	0xbe995896	-0.29950398
167	0x3d0d66a8	0.03452173
168	0x3e5e9df8	0.21739948
169	0xbe4a5abb	-0.19761173
170	0x3e015f0a	0.12633911
171	0x3d0aa955	0.033852894
172	0xbe620e30	-0.22075725
173	0xbd28d9e3	-0.041223418
174	0xbd946cf1	-0.072473414
175	0xbe83d27f	-0.25746533
176	0xbe714ff4	-0.23565656
177	0x3df8ca8e	0.12148009
178	0x3d0230a5	0.031784672
179	0x3da8ff2c	0.08251795
180	0xbd8a5c7b	-0.067559205
181	0x3c8bc332	0.01706085
182	0x3e94549a	0.28970796
183	0x3d3c8330	0.046023548
184	0xbef5111a	-0.4786461
185	0xbdb0964e	-0.08622418
186	0x3da07cc3	0.078362964
187	0x3dfd5c32	0.123711005
188	0xba118ee8	-0.0005552606
189	0xbdb495c2	-0.088176265
190	0xbdc703ef	-0.09717547
191	0x3cdfe577	0.027331097
192	0x3d110236	0.0354025
193	0x3df846dd	0.12122891
194	0x3e10515f	0.1409354
195	0x3d6e1ab2	0.058130927
196	0x3e33b6ae	0.17550156
197	0xbd9859bf	-0.07438993
198	0xbdd29f65	-0.10284308
199	0xbda91aca	-0.08257063
200	0xbe38a88b	-0.18033044
201	0x3e00792b	0.12546222
202	0x3e9bfbf3	0.3046566
203	0x3dc3124f	0.095249765
204	0xbd8621cd	-0.06549416
205	0x3d87c3e7	0.06629162
206	0x3d86bd54	0.0657908
207	0xbbc68cfa	-0.006059286
208	0x3c30f17b	0.010799761
209	0x3da91629	0.0825618
210	0xbc60c03d	-0.013717708
211	0x3dedf81b	0.11619588
212	0x3d6ec3e4	0.058292285
213	0xbe08bc77	-0.13353144
214	0xbc2e1ee4	-0.010627482
215	0xbc8e4d5a	-0.017370868
216	0x3d303391	0.043017928
217	0x3ec29099	0.38000944
218	0xbc39167e	-0.011296866
219	0x3cc2b944	0.023769982
220	0x3ddd04c6	0.10791926
221	0xbd5e53a6	-0.054278992
222	0xbe82f83b	-0.2558001
223	0xbd93f636	-0.072246954
224	0xbcbba2fe	-0.02290487
225	0xbd736a7b	-0.05942772
226	0xbdaedd09	-0.08538253
227	0xbd0d423c	-0.034486994
228	0x3e97d400	0.2965393
229	0x3e450ef9	0.19243993
230	0xbc44d59d	-0.01201382
231	0xbcf0447a	-0.029329527
232	0x3c476ed1	0.012172417
233	0x3d22f5da	0.039785244
234	0x3cf1bb88	0.029508367
235	0xbda67cfb	-0.08129307
236	0x3d1b50ba	0.037918784
237	0xbcecd3b6	-0.028909545
238	0xbcc1d778	-0.023662314
239	0x3c6e0210	0.014526859
240	0xbdf525ff	-0.11970138
241	0xbe311563	-0.17293315
242	0x3bd7e3ce	0.0065884357
243	0x3e1aa6a0	0.15102625
244	0x3da29e16	0.07940309
245	0x3d06943c	0.03285621
246	0x3df23518	0.11826533
247	0xbd8fec75	-0.070275225
248	0xbe07d854	-0.13266116
249	0x3db3c5ad	0.08777938
250	0xbc37dea7	-0.011222518
251	0xbda01b2f	-0.07817685
252	0xbda6dbe7	-0.08147412
253	0x3e3494bb	0.17634861
254	0x3e268709	0.1626245
255	0xbe1eb4fd	-0.15498729

down2.maxpool_conv.1.conv_conv.0.bias f4 [32]
0	0xbdc53972	-0.096300974
1	0x3d984f80	0.074370384
2	0xbc858c34	-0.016302206
3	0xbd9bb807	-0.0760346
4	0x3caf83b2	0.021425102
5	0xbd9d1574	-0.076701075
6	0xbdd1f0a7	-0.10250979
7	0xbd35f8ae	-0.044426613
8	0x3c4c286a	0.012460807
9	0x3de4d0ea	0.1117266
10	0xbdcae74e	-0.09907399
11	0xbdaed669	-0.08536989
12	0x3d3286ef	0.043585714
13	0x3cd38b78	0.02582334
14	0xbdc39bf5	-0.09551231
15	0xbd84c47a	-0.064827874
16	0xbdf3de26	-0.11907606
17	0xbd9ad83c	-0.07560775
18	0x3caa8f52	0.020820294
19	0xbdb24b48	-0.08705765
20	0xbd9b6bbf	-0.0758891
21	0xbd962d5b	-0.073328696
22	0xbde7fc03	-0.11327364
23	0x3d3b47d4	0.045722798
24	0xbcb002fb	-0.021485796
25	0x3cba0498	0.022707269
26	0xbdd0021d	-0.10156653
27	0xbbdcf7d0	-0.0067434087
28	0xbd130b49	-0.035899434
29	0xbdc7bb32	-0.097525015
30	0x3da4c28f	0.080449216
31	0xbd850067	-0.06494217

down2.maxpool_conv.1.conv_conv.1.weight f4 [32]
0	0x3f4f2664	0.80917954
1	0x3f519088	0.8186116
2	0x3f46c2f9	0.77641255
3	0x3f58aae0	0.84635735
4	0x3f7bf092	0.98413956
5	0x3f53ce29	0.8273645
6	0x3f5b5f92	0.85692704
7	0x3f4199b3	0.7562515
8	0x3f784c68	0.96991587
9	0x3f63626d	0.8882206
10	0x3f590bdf	0.8478374
11	0x3f652776	0.8951334
12	0x3f64840a	0.89263976
13	0x3f4ba76d	0.79552346
14	0x3f65c287	0.8974995
15	0x3f65b0ed	0.8972309
16	0x3f876f25	1.0580794
17	0x3f540336	0.828174
18	0x3f647a52	0.89249146
19	0x3f8d0f5a	1.102031
20	0x3f6e0097	0.9296965
21	0x3f61b39b	0.8816468
22	0x3f72c16b	0.9482638
23	0x3f675bb8	0.90374327
24	0x3f7f1117	0.9963545
25	0x3f5e75cc	0.86898494
26	0x3f816d7f	1.011154
27	0x3f51e6fa	0.8199307
28	0x3f6b42bf	0.9189872
29	0x3f41caaf	0.75699896
30	0x3f498bc0	0.78728867
31	0x3f69c8bf	0.9132194

down2.maxpool_conv.1.conv_conv.1.bias f4 [32]
0	0xbec6a7ae	-0.38799804
1	0xbef4bcd5	-0.47800317
2	0xbe8822b8	-0.26588988
3	0xbee381f3	-0.4443508
4	0xbebe2505	-0.3713762
5	0xbf4389f2	-0.7638236
6	0xbf3068e5	-0.68910056
7	0xbef183f4	-0.47170985
8	0xbf1d277e	-0.61388385
9	0xbec15605	-0.3776094
10	0xbf1f0ddd	-0.6213053
11	0xbe819d33	-0.25315246
12	0xbf021863	-0.5081846
13	0xbf0121b1	-0.50442034
14	0xbeea8283	-0.45802698
15	0xbf3aae8f	-0.72922605
16	0xbf04d128	-0.5188165
17	0xbdc09220	-0.09402871
18	0xbefb11a9	-0.4903691
19	0xbf4aed9c	-0.79268813
20	0xbed0b4e1	-0.40763
21	0xbf41bcbb	-0.75678605
22	0xbec61cd7	-0.38693878
23	0xbeb8c5b1	-0.36088327
24	0xbea50c80	-0.322361
25	0xbec93b1c	-0.3930291
26	0xbf18bb8a	-0.5966116
27	0xbebed220	-0.37269688
28	0xbe84eca6	-0.25961798
29	0xbe89bc85	-0.2690164
30	0xbeb98286	-0.36232394
31	0xbee68fdc	-0.4503163

down2.maxpool_conv.1.conv_conv.1.running_mean f4 [32]
0	0x3eac2da9	0.33628586
1	0xbdeefabb	-0.11668917
2	0xbeea176a	-0.4572099
3	0xbe85eab4	-0.26155627
4	0xbfb6f1cb	-1.4292539
5	0xbd878fff	-0.06619262
6	0xbe73a6d5	-0.2379411
7	0x3f076501	0.52888495
8	0xbf252bbf	-0.64519876
9	0xbfc8d437	-1.5689763
10	0xbe531be1	-0.20616104
11	0xbfa291b1	-1.2700711
12	0x3f95701f	1.1674842
13	0x3f8543a3	1.0411266
14	0x3f28e5cb	0.65975636
15	0xbdb467fd	-0.08808897
16	0xbfc0e06c	-1.5068488
17	0xbfdd48f2	-1.7287886
18	0xbf1503cd	-0.58208925
19	0xbf7d5a86	-0.9896625
20	0xbe3096ed	-0.17245074
21	0x3f577fcd	0.84179384
22	0x3e496c92	0.19670323
23	0x3f842cda	1.0326188
24	0xbf595e02	-0.8490907
25	0xbf225686	-0.63413274
26	0xbf75f8d8	-0.9608283
27	0x3e84a4ca	0.25906974
28	0xbf510db2	-0.8166152
29	0x3db0f98b	0.086413465
30	0x3f493a1b	0.78604287
31	0xbf9f7bc8	-1.245965

down2.maxpool_conv.1.conv_conv.1.running_var f4 [32]
0	0x3f5a0445	0.85162765
1	0x3ee297a2	0.44256312
2	0x3f03f71a	0.5154892
3	0x3fa887b5	1.3166414
4	0x3f6f0a05	0.93374664
5	0x3f4c1d00	0.7973175
6	0x3f9f264e	1.2433565
7	0x3f1e1683	0.617531
8	0x3f00e8f8	0.5035548
9	0x3f13dc83	0.5775835
10	0x3f3fa2ee	0.74857986
11	0x3f15a62b	0.5845668
12	0x3f5bf23c	0.85916495
13	0x3f3b9985	0.7328113
14	0x3ee82ee0	0.45348263
15	0x3f982c2e	1.1888483
16	0x3f8fb4b2	1.1227019
17	0x3f84d021	1.0376016
18	0x3f4cb809	0.79968315
19	0x3f590177	0.8476786
20	0x3f4fcee0	0.8117504
21	0x3eda7938	0.42670608
22	0x3fbc49d2	1.4710028
23	0x3f4d2ab7	0.801433
24	0x3f85367a	1.040725
25	0x3ee2f78b	0.44329485
26	0x3faa1241	1.3286821
27	0x3f8cfab4	1.1014009
28	0x3f21dd9a	0.6322876
29	0x3ec10dcb	0.37705836
30	0x3f510de6	0.8166183
31	0x3f0c705c	0.54858947

down2.maxpool_conv.1.conv_conv.4.weight f4 [32, 32, 3, 3]
0	0x3c9e7644	0.019343503
1	0x3a396d0d	0.000707344
2	0xbd009ab6	-0.031397544
3	0x3babbc5a	0.005240959
4	0x3e0574df	0.13032864
5	0x3e21d2e9	0.15803112
6	0xbd7c8e2d	-0.061659027
7	0xbd35dad7	-0.044398155
8	0xbda273d9	-0.079322524
9	0xbbd60799	-0.0065316674
10	0xbe4d79c5	-0.20065983
11	0xbe5dfba0	-0.21678019
12	0xbe1d2c63	-0.15348963
13	0xbe3ff492	-0.1874564
14	0xbe201c34	-0.15635759
15	0xbd899a02	-0.06718828
16	0x3cf9a454	0.030473866
17	0xbd4c44ef	-0.049870428
18	0xbe228757	-0.1587194
19	0x3df8d39c	0.12149736
20	0xbce93e59	-0.028472112
21	0xbd8de5f6	-0.06928627
22	0x3e0c4434	0.13697892
23	0xbcbff0df	-0.023430286
24	0xbdf7ffda	-0.12109347
25	0x3c5cf3aa	0.013485828
26	0xbdd1c16e	-0.10241972
27	0x3c8dd111	0.017311605
28	0xbd2aef38	-0.041732043
29	0xbe216c95	-0.15764077
30	0x3c24067a	0.01001131
31	0xbdd1d6e5	-0.10246066
32	0x3d22bc06	0.039730094
33	0xbea0b405	-0.31387344
34	0xbe9b0304	-0.30275738
35	0xbe4b241f	-0.19837998
36	0xbe16a8d0	-0.14712834
37	0x3cb20cc3	0.0217346
38	0x3d6e14a8	0.058125168
39	0xbe5cc8b8	-0.21560943
40	0x3dcf784d	0.101303674
41	0x3d2bf63c	0.041982874
42	0xbe53ea67	-0.20694886
43	0xbc820516	-0.015871566
44	0x3d519507	0.051167514
45	0x3d9e4d44	0.07729581
46	0xbd0dde86	-0.034636043
47	0x3e20ed50	0.15715528
48	0x3d810f11	0.06301702
49	0x3ceeea22	0.029164378
50	0x3dcd6938	0.100298345
51	0x3d780870	0.06055492
52	0xbd0a87af	-0.033820804
53	0x3dc9e83f	0.098587506
54	0xbcde3628	-0.027125433
55	0xbe3bd30e	-0.1834223
56	0xbe7bd325	-0.24592264
57	0x3d02c1a2	0.031922944
58	0x3cb5d47b	0.022196045
59	0xb94ec9e5	-0.00019720902
60	0xbd88defc	-0.06683156
61	0x3d73937e	0.05946683
62	0xbcfae212	-0.030625377
63	0x3c9b18b2	0.018932674
64	0x3d5e22c7	0.054232385
65	0x3d11100a	0.035415687
66	0xbd5191b3	-0.05116434
67	0xbdffeb9f	-0.12496113
68	0xbcf7ae96	-0.030234616
69	0xbe175de8	-0.14781916
70	0xbe99fa2b	-0.30073676
71	0xbea5e890	-0.32403994
72	0x3c885d2a	0.016645987
73	0xbdad8231	-0.08472098
74	0xbdb1ef14	-0.08688179
75	0x3e7d8fdf	0.24761914
76	0x3d86abee	0.06575762
77	0xbcfecf77	-0.031104786
78	0xbbc7a102	-0.0060921917
79	0x3e9a9edc	0.30199325
80	0x3e2c2f9a	0.16815034
81	0xbdb09dc9	-0.08623845
82	0xbde644b9	-0.112435766
83	0x3cbfbd69	0.023405747
84	0x3cefc9cb	0.029271027
85	0x3ca080a4	0.01959259
86	0xbdcb51c2	-0.099277034
87	0xbd541b11	-0.051783625
88	0xbd09d48a	-0.03364996
89	0xbd66178d	-0.056174804
90	0x3e82c345	0.25539604
91	0x3cac24f8	0.021013722
92	0x3ca4f4a8	0.020136192
93	0x3e0110ff	0.1260414
94	0x3dc22359	0.09479398
95	0x3e60c5be	0.21950433
96	0x3e030430	0.12794566
97	0xbd8d06c2	-0.068860546
98	0x3bfd7e8d	0.0077360333
99	0xbd880e62	-0.06643368
100	0xbe8a3329	-0.26992157
101	0xbdecd9fc	-0.11565015
102	0xbdedcb80	-0.1161108
103	0xbd54d900	-0.05196476
104	0xbe34ab49	-0.17643465
105	0xbd6b0dc1	-0.057386164
106	0x3d949e49	0.07256753
107	0xbc87db17	-0.016583962
108	0x3dc49001	0.09597779
109	0xbce7fd92	-0.028319154
110	0x3d7de1a8	0.06198278
111	0xbdf54d04	-0.1197758
112	0xbe75c70c	-0.24001712
113	0xbc38ec99	-0.011286878
114	0xbd68d705	-0.056845684
115	0xbe31b498	-0.17354047
116	0xbb56289b	-0.0032678011
117	0xbd2b8967	-0.041879084
118	0xba2f28fd	-0.0006681828
119	0x3db01e59	0.08599538
120	0xbe588bcb	-0.21147077
121	0xbddbd024	-0.10733059
122	0xbe017831	-0.12643506
123	0xbe609e97	-0.21935497
124	0xbe0054e6	-0.12532386
125	0xbd54654d	-0.05185442
126	0x3d0f42c0	0.034975767
127	0x3cc8d0ef	0.02451369
128	0x3b37498c	0.0027967421
129	0xbd646012	-0.055755682
130	0xbdbdf3e6	-0.092750356
131	0x3d3d2690	0.046179354
132	0x3cde1d4b	0.027113577
133	0xbe94fc26	-0.29098624
134	0xbe04de84	-0.12975508
135	0xbee98978	-0.45612693
136	0xbe11cba0	-0.14237833
137	0xbe729efd	-0.23693462
138	0xbf22bc3a	-0.6356846
139	0x3c43e03d	0.011955318
140	0xbe8703d4	-0.26370108
141	0xbed8bba7	-0.42330667
142	0x3d64ce92	0.055861063
143	0xbdde5722	-0.10856463
144	0x3e026431	0.12733532
145	0xbd215880	-0.03939104
146	0x3dfb84e3	0.122812055
147	0x3e173894	0.14767677
148	0xbdf20f38	-0.11819309
149	0x3dd57bb8	0.10423988
150	0x3de4f8cf	0.11180269
151	0xbde6b4dc	-0.11264965
152	0xbe16a7a3	-0.14712386
153	0xbb4aa650	-0.0030921884
154	0xbdc2f12d	-0.09518657
155	0xbd7c926b	-0.061663073
156	0x3e4724c1	0.19447614
157	0x3ce17327	0.02752073
158	0x3d62465d	0.055242885
159	0x3d969867	0.07353287
160	0x3d07bcae	0.033138923
161	0x3d859035	0.06521646
162	0xbe15b7ab	-0.14620845
163	0xbc0c7912	-0.008573787
164	0xbcaa9e48	-0.020827428
165	0xbe27ccbc	-0.16386694
166	0xbd78e65e	-0.06076657
167	0xbcd599cd	-0.026074314
168	0xbdbfe041	-0.09368945
169	0x3d3f58b4	0.046715453
170	0x3d3bf8b2	0.04589147
171	0xbea6a2f5	-0.325462
172	0xbca1b8e1	-0.019741477
173	0x3c2d4135	0.010574629
174	0xbe0de048	-0.13855088
175	0x3d232f71	0.039840166
176	0xbdfbebcb	-0.12300833
177	0xbced9ec0	-0.029006362
178	0x3dd1ea36	0.1024975
179	0xbd8b3d2b	-0.06798776
180	0x3d06e6cf	0.03293496
181	0xbea9f2ef	-0.33193156
182	0xbe598916	-0.212437
183	0x3ce5e0cf	0.028061299
184	0x3e0d58fd	0.13803478
185	0x3dd944c1	0.10608817
186	0x3c3b13d8	0.011418305
187	0xbca6ebe9	-0.020376163
188	0x3d17b254	0.0370353
189	0x3dd0ab5c	0.10188934
190	0xbd2b6507	-0.041844394
191	0x3c45e948	0.012079544
192	0x3e44af97	0.19207607
193	0xbc4b755a	-0.0124181155
194	0x3de1fe37	0.11034816
195	0x3e445b96	0.19175562
196	0x3d63e9ac	0.05564277
197	0x3e3dfaee	0.18552753
198	0xbe86219f	-0.26197526
199	0xbe99c9d0	-0.30036783
200	0xbdecc7b6	-0.11561529
201	0xbed1198a	-0.40839797
202	0xbef101a4	-0.47071564
203	0xbeb0eef0	-0.34557295
204	0xbeaf7d9d	-0.34275523
205	0xbe745021	-0.23858692
206	0xbe7c2528	-0.24623549
207	0x3b6ffbbe	0.0036618556
208	0xbd21ab26	-0.03946986
209	0x3ca8eb99	0.020620154
210	0x3d5a0e70	0.053236425
211	0x3e063877	0.13107477
212	0x3e35ff6d	0.17773218
213	0xbd37e3b1	-0.044894878
214	0xbe3f4fe0	-0.18682814
215	0xbd88ca4c	-0.0667921
216	0x3d8adcab	0.0678037
217	0xbc571653	-0.013127881
218	0x3ddfd525	0.10929326
219	0xbcfd7e5a	-0.030944038
220	0xbec0ff6d	-0.37694874
221	0xbe87f2a6	-0.26552314
222	0x3d86235d	0.06549714
223	0x3d44a824	0.048011914
224	0xbd5e4c32	-0.054271884
225	0xbcbba273	-0.02290461
226	0x3da5d637	0.08097499
227	0xbcd030de	-0.025413927
228	0xbdb86929	-0.09004433
229	0x3e46dc23	0.19419913
230	0x3d85a30b	0.065252386
231	0xbdb65568	-0.08903009
232	0x3bef0706	0.0072945384
233	0x394aabe9	0.00019328263
234	0x3e4a6e18	0.1976856
235	0x3e19d397	0.15022121
236	0x3dac4afd	0.084127404
237	0xbcd56a8b	-0.02605178
238	0xbe84f716	-0.25969762
239	0xb9276175	-0.00015962667
240	0x3e16cee2	0.14727357
241	0xbd3b9322	-0.045794614
242	0xbe35b9c1	-0.1774664
243	0x3d806013	0.06268325
244	0xbd87acf5	-0.06624786
245	0x3a0b4bd5	0.0005313729
246	0x3d991f24	0.07476643
247	0xbc72ac91	-0.014811651
248	0x3cc036f6	0.023463707
249	0x3c1daec2	0.009624185
250	0xbc254336	-0.010086825
251	0xbd1fcb9b	-0.039012533
252	0x3d95474f	0.07288992
253	0xbd8f9ee1	-0.070127256
254	0x3e417628	0.1889273
255	0x3d281d90	0.041043818

down2.maxpool_conv.1.conv_conv.4.bias f4 [32]
0	0xbcaf1741	-0.021373393
1	0xbcb8c44a	-0.022554535
2	0xbc7cca34	-0.015429068
3	0x3d0a0fd7	0.033706512
4	0xbce2b6b4	-0.02767501
5	0x3c3f53ea	0.0116777215
6	0x3d53cf00	0.051711082
7	0x3d3cfe06	0.046140693
8	0x3c410837	0.011781744
9	0x3d078710	0.03308779
10	0x3d1ef4e1	0.038807753
11	0x3d5b9d24	0.053616658
12	0x3d546156	0.05185064
13	0xb9bd1456	-0.0003606404
14	0x3cea2bb2	0.028585289
15	0xbc2f35bd	-0.010693965
16	0x3cf19079	0.029487835
17	0xbcb5ae99	-0.022177981
18	0xbcbf5efe	-0.023360725
19	0x3d473bf2	0.048641153
20	0x3d6ee23f	0.058321234
21	0x3bebae67	0.0071924212
22	0x3b07dcff	0.002073109
23	0xbcf6d7c8	-0.03013219
24	0x3d0cbe7b	0.034361344
25	0x3d4e07ea	0.050300516
26	0xbc9523ef	-0.018205611
27	0xbd1e20de	-0.038605563
28	0xbc80f2c4	-0.01574076
29	0xba498e22	-0.0007688721
30	0x3d2b7c14	0.041866377
31	0xbd693b85	-0.056941528

down2.maxpool_conv.1.conv_conv.5.weight f4 [32]
0	0x3f8c4215	1.0957667
1	0x3f824a69	1.0178958
2	0x3f97971e	1.1842992
3	0x3f6ab57d	0.9168318
4	0x3f9374ce	1.1520021
5	0x3f94c865	1.1623656
6	0x3f876952	1.0579016
7	0x3f7aeb4e	0.98015296
8	0x3f7d8ec5	0.99045974
9	0x3f5b1540	0.855793
10	0x3f8550a7	1.0415238
11	0x3f4d4669	0.8018556
12	0x3f80662f	1.0031184
13	0x3f9f46cf	1.2443484
14	0x3f8c3401	1.095337
15	0x3f9e8e38	1.2387152
16	0x3f8d6a9c	1.104816
17	0x3f8f123d	1.1177441
18	0x3f88f172	1.0698683
19	0x3f5605de	0.836027
20	0x3f7d6c01	0.98992926
21	0x3f68dde7	0.90963596
22	0x3f872840	1.0559158
23	0x3f809599	1.0045654
24	0x3f8be463	1.0929073
25	0x3f711f56	0.9418844
26	0x3f647b57	0.892507
27	0x3fa10b49	1.2581569
28	0x3f94f333	1.1636719
29	0x3f7828c2	0.9693719
30	0x3f7f25dd	0.9966715
31	0x3f477acf	0.77921766

down2.maxpool_conv.1.conv_conv.5.bias f4 [32]
0	0xbee9fbb4	-0.45699847
1	0xbe8a4e52	-0.2701288
2	0xbe819723	-0.2531062
3	0xbeb9eed1	-0.36315015
4	0xbf0cda1f	-0.55020326
5	0xbeb5f3f3	-0.3553768
6	0xbf0e2843	-0.55530185
7	0xbe8c070b	-0.27349123
8	0xbdf9b285	-0.12192253
9	0xbe97166a	-0.29509288
10	0xbf04f909	-0.519425
11	0xbee6accf	-0.45053717
12	0xbe132596	-0.14369807
13	0xbdc1d069	-0.09463579
14	0xbe21aa1c	-0.15787548
15	0xbe98c297	-0.2983596
16	0xbea519eb	-0.32246336
17	0xbe8a994d	-0.27070084
18	0xbe2bcd6f	-0.16777585
19	0xbe9cb3fd	-0.3060607
20	0xbf1eecde	-0.6208018
21	0xbef61961	-0.48066238
22	0xbea21ad2	-0.31661087
23	0xbdd0d389	-0.10196597
24	0xbe00adeb	-0.12566344
25	0xbeea7953	-0.45795688
26	0xbe801b0a	-0.2502063
27	0xbe6fb7da	-0.23409978
28	0xbec06b75	-0.37581983
29	0xbef11ac0	-0.4709072
30	0xbe086d3f	-0.13322924
31	0xbf2e9e4e	-0.68210304

down2.maxpool_conv.1.conv_conv.5.running_mean f4 [32]
0	0xbfb0f531	-1.3824826
1	0xbebda0b7	-0.37036678
2	0xbfbad021	-1.4594766
3	0xbf28a937	-0.658832
4	0xbfb04dfc	-1.3773799
5	0xbfc30cf4	-1.5238328
6	0xbf86d815	-1.0534693
7	0xbf872121	-1.0556985
8	0xbfac83a4	-1.3477674
9	0xbfe3686c	-1.7766242
10	0xbf7728b8	-0.96546507
11	0xbdd3fc68	-0.10350877
12	0xbfd6e828	-1.6789598
13	0xc011d6cb	-2.278735
14	0xc00f8276	-2.2423377
15	0xbfe1a72a	-1.762914
16	0xbfd7b907	-1.6853341
17	0xbf815bf2	-1.0106184
18	0xbfb1781d	-1.3864781
19	0xbf4e5829	-0.8060327
20	0xbf782a50	-0.96939564
21	0xbf1b3c6f	-0.6063909
22	0xbfa2f765	-1.2731749
23	0xbfba4d41	-1.4554826
24	0xbfb0a1ef	-1.3799418
25	0xbf3892b5	-0.7209886
26	0xbeb5e433	-0.35525665
27	0xc0128b24	-2.2897425
28	0xbfe06c0f	-1.7532977
29	0xbf5310b7	-0.8244738
30	0xbf6bbda0	-0.9208622
31	0x3ed4df72	0.41576725

down2.maxpool_conv.1.conv_conv.5.running_var f4 [32]
0	0x4058d538	3.3880138
1	0x408d2e49	4.4119
2	0x40839b8e	4.1127386
3	0x400efec1	2.234299
4	0x403ba7c0	2.9321136
5	0x408b8d64	4.3610096
6	0x404ad467	3.169214
7	0x4051ed8a	3.2801232
8	0x4060a333	3.509961
9	0x40282149	2.6270316
10	0x404fd1b3	3.247174
11	0x402b1bb8	2.6735668
12	0x40a04c61	5.0093236
13	0x410d9361	8.848481
14	0x407ec7ec	3.9809523
15	0x409ace77	4.837703
16	0x4031b7c5	2.7768414
17	0x408e3aae	4.444663
18	0x40c2abf2	6.0834894
19	0x402b6877	2.678251
20	0x40295e2a	2.6463723
21	0x400b0743	2.1723182
22	0x40b2971a	5.580945
23	0x408e39fb	4.4445777
24	0x408fa592	4.488961
25	0x4043e46b	3.0608165
26	0x40573529	3.3626196
27	0x41071346	8.442205
28	0x40a2987f	5.0811152
29	0x402f4ef0	2.739193
30	0x40539de9	3.306513
31	0x3fea605f	1.831066

down3.maxpool_conv.1.conv_conv.0.weight f4 [48, 32, 3, 3]
0	0xbde26b2f	-0.110556
1	0xbdfb4843	-0.12269642
2	0xbe3c2c57	-0.1837629
3	0xbe0219dd	-0.12705179
4	0xbe86f467	-0.2635834
5	0xbe1a3645	-0.15059765
6	0xbdecd701	-0.11564446
7	0xbe2f4210	-0.17115045
8	0x3ad80352	0.0016480482
9	0xbca16f2d	-0.019706333
10	0x3c9e9cdf	0.019361911
11	0x3b3bda43	0.002866403
12	0xbdfa1e53	-0.12212815
13	0xbe041729	-0.1289946
14	0xbb14188e	-0.0022597644
15	0xbd94bf0b	-0.07263001
16	0xbd0c4fbd	-0.03425573
17	0x3d4ace81	0.049513344
18	0x3de8eaf5	0.113729395
19	0x3c029187	0.007969267
20	0xbd5e669a	-0.054297067
21	0xbdaf47dd	-0.08558629
22	0xbdc0ac61	-0.09407879
23	0xbc8274a4	-0.01592476
24	0xbda8770e	-0.08225833
25	0x3db3b83b	0.087753735
26	0x3e8ab3fc	0.27090442
27	0xbb6ed611	-0.0036443511
28	0xbb7a1a61	-0.0038162696
29	0xbdc9ec94	-0.09859577
30	0xbd6474e2	-0.05577553
31	0xbca80047	-0.020507945
32	0x3d4a1408	0.04933551
33	0xbd9b0b3d	-0.07570503
34	0xbd9f203c	-0.0776982
35	0xbd7bfc62	-0.061519988
36	0xbe562b4c	-0.20914954
37	0xbddc51df	-0.10757803
38	0xbe2843c5	-0.16432102
39	0xbe0e15c9	-0.13875498
40	0xbd261881	-0.040550712
41	0xbd9d9984	-0.076952964
42	0xbe848064	-0.25879204
43	0xbd36da0f	-0.04464155
44	0xbcd25775	-0.025676468
45	0xbe1a25c3	-0.15053467
46	0xbe727872	-0.23678759
47	0x3d4ded02	0.050274856
48	0xbe2338f1	-0.1593969
49	0xbe304c21	-0.17216541
50	0x3d492e28	0.049116284
51	0xbd52f399	-0.051501844
52	0xbd9bf855	-0.07615725
53	0x3c41e981	0.011835457
54	0xbdd94f47	-0.10610824
55	0xbd87b676	-0.066265985
56	0x3e4f2cb1	0.20231892
57	0x3cd29282	0.025704626
58	0xbc98a6b4	-0.018634178
59	0xbdca6053	-0.09881654
60	0xbd976e0a	-0.07394035
61	0xbd5807fe	-0.052741997
62	0xbe3bafc1	-0.18328764
63	0xbd182c9c	-0.037151918
64	0xbe320491	-0.17384554
65	0xbe4fd7d2	-0.20297173
66	0xbd94a742	-0.072584644
67	0xbc1cbfce	-0.009567214
68	0xbdbeb95a	-0.09312697
69	0xbde89b3c	-0.113577336
70	0xbdaa2b0c	-0.08308992
71	0x3d8f4f0a	0.069974974
72	0xbd3ad9e6	-0.04561796
73	0x3d4725d0	0.048620045
74	0x3da6f617	0.08152407
75	0xbceaaa7d	-0.028645748
76	0xbcd3855f	-0.025820432
77	0xbd047671	-0.032339517
78	0x3c05076f	0.008119448
79	0x3d816d95	0.06319729
80	0x3d12070b	0.035651248
81	0x3c9ee681	0.019397022
82	0xbcc85037	-0.024452312
83	0x3c1e0a17	0.00964596
84	0xbd9ff810	-0.07810986
85	0xbc6fea7e	-0.01464331
86	0x3ca3ca64	0.019993968
87	0xbce69b74	-0.028150298
88	0x3d5dc208	0.05414012
89	0xbcb2d524	-0.021830149
90	0x3c5df297	0.013546607
91	0x3d3dd156	0.046342216
92	0x3e7fbda9	0.24974693
93	0x3caf1668	0.021372989
94	0x3d8bad97	0.06820219
95	0x39c78194	0.0003805278
96	0xbe17ce33	-0.14824753
97	0xbdcb24af	-0.09919106
98	0xbdd437a4	-0.10362175
99	0xbb7d415e	-0.0038643698
100	0x3d0bfb17	0.034175005
101	0x3e1488a7	0.14505254
102	0xbde7bb33	-0.11315002
103	0x3da4611b	0.08026334
104	0x3e081bbd	0.13291831
105	0x3cb98215	0.022645036
106	0x3d4e46e7	0.050360586
107	0xbd009371	-0.03139061
108	0x3e13b63b	0.14424984
109	0x3e08a8cf	0.13345645
110	0x3d2f04c6	0.04272916
111	0x3dcce53f	0.10004663
112	0x3e2c0895	0.16800149
113	0x3d91828e	0.071049795
114	0x3cd71445	0.026254782
115	0x3d2dbc78	0.042416066
116	0xbd8aaa31	-0.06770743
117	0xbe4670bf	-0.19378947
118	0xbeb4e4d1	-0.35330823
119	0xbdcc1dd3	-0.09966626
120	0xbe6880c5	-0.22705372
121	0xbe4db101	-0.20087053
122	0xbd28747c	-0.041126713
123	0xbe504506	-0.2033883
124	0xbdb5cc2b	-0.088768326
125	0xbd383f76	-0.044982396
126	0xbdf9ba89	-0.12193782
127	0xbde701e3	-0.11279657
128	0xbe028447	-0.12745772
129	0xbd9769b7	-0.073932104
130	0x3da58ed7	0.08083885
131	0x3d3cf57b	0.046132546
132	0x3d121d98	0.035672754
133	0x3d7d4b1e	0.061839215
134	0x3c7e64f2	0.015526997
135	0xbebf9344	-0.37417042
136	0xbee17d91	-0.44041112
137	0xbe85cbdc	-0.26132095
138	0xbed6d5f9	-0.41960123
139	0xbecc93de	-0.39956564
140	0xbe5863e6	-0.21131858
141	0xbe97aa87	-0.2962229
142	0xbe808f29	-0.25109223
143	0xbd3aa809	-0.045570407
144	0x3dc088b1	0.09401072
145	0x3e53f817	0.20700108
146	0x3e2ad3e3	0.16682391
147	0x3c1e3a20	0.009657413
148	0x3d80b6cd	0.062848665
149	0x3d69287a	0.056923367
150	0x3b696732	0.0035614488
151	0x3cec0ae0	0.02881378
152	0xbcaecbe1	-0.021337451
153	0xbe3a5e9c	-0.18200153
154	0xbe9831ce	-0.29725498
155	0xbe1a24d0	-0.15053105
156	0xbdfd94ba	-0.12381883
157	0xbea8931e	-0.32924742
158	0xbe5d78d1	-0.21628119
159	0xbcc57263	-0.024102395
160	0x3c1cf5b8	0.009580068
161	0x3dff3754	0.12461725
162	0xbe909e81	-0.2824593
163	0xbe8482bf	-0.25881
164	0xbe5f3e06	-0.21801004
165	0xbe16e9b0	-0.14737582
166	0xbe5a7131	-0.21332242
167	0xbe55742f	-0.20845102
168	0xbdb6785c	-0.089096755
169	0xbe0f6dbd	-0.14006706
170	0xbe32a94f	-0.17447399
171	0x3d3bc0a8	0.04583803
172	0xbd03c32b	-0.03216855
173	0x3d351823	0.04421247
174	0x3e65b401	0.22431947
175	0x3dd6c160	0.10486102
176	0x3d9c5248	0.076328814
177	0x3db8aed5	0.090177216
178	0xbdb0671e	-0.08613418
179	0xbe0f1398	-0.13972318
180	0xbc657614	-0.014005203
181	0xbd9b36c2	-0.075788036
182	0x3e2a258e	0.16615888
183	0x3de815ca	0.11332281
184	0x3e87e721	0.26543525
185	0x3e3862c4	0.18006426
186	0x3e31757f	0.17329977
187	0x3e53f39e	0.20698401
188	0x3d922f6d	0.07137952
189	0xbd7316a2	-0.059347756
190	0x3da5a08a	0.08087261
191	0x3db6dde0	0.08929038
192	0x3c2812e5	0.010258411
193	0x3d6b27c4	0.05741097
194	0x3ddea2f5	0.10870925
195	0xbd820087	-0.06347757
196	0xbd79f22a	-0.06102196
197	0x3d1a984f	0.03774291
198	0xbbcc1ec3	-0.006229253
199	0xbca7b91d	-0.020474011
200	0xbd8363ee	-0.064155445
201	0xbd51b5b1	-0.051198665
202	0xbd20c4c5	-0.039250154
203	0xbdb055d2	-0.08610119
204	0x3e022111	0.12707926
205	0x3e1f3bee	0.15550205
206	0x3db078cf	0.086167924
207	0x3ce91f98	0.028457448
208	0xbc4ffdc7	-0.012694783
209	0xbe083932	-0.13303068
210	0xbc44f2c7	-0.012020773
211	0xbc36e5b8	-0.011163168
212	0xbda621ff	-0.08111953
213	0xbd999e67	-0.07500916
214	0xbd13a65f	-0.036047336
215	0xbdbfb766	-0.09361152
216	0xbc7f8e37	-0.0155978715
217	0xbd6680a2	-0.056275018
218	0xbc740e03	-0.014895919
219	0x3d99901c	0.0749819
220	0x3d8d57ab	0.06901487
221	0x3df3a0c7	0.118959
222	0x3d5ead31	0.054364387
223	0x3d43113d	0.04762386
224	0x3e47901f	0.19488572
225	0x3e1e74f5	0.15474303
226	0xbd8c3864	-0.06846693
227	0xbe9f9065	-0.31164852
228	0x3d28c5d1	0.041204277
229	0xbda62225	-0.08111981
230	0xbddc0f33	-0.107450865
231	0xbd6607a1	-0.05615962
232	0x3d365135	0.04451104
233	0xbce25dd1	-0.027632626
234	0xbd545145	-0.051835317
235	0xbe1401ab	-0.14453761
236	0x3e0c569d	0.13704915
237	0x3b6e68f5	0.0036378477
238	0x3d24f6ab	0.040274303
239	0x3e0cb66b	0.13741462
240	0x3d1d3b56	0.038386665
241	0x3dc1746f	0.09446036
242	0x3dc2c7a1	0.095107324
243	0xbd925655	-0.07145373
244	0xbe81589d	-0.2526292
245	0xbdee413c	-0.11633536
246	0xbd4af28d	-0.04954772
247	0xbd85af71	-0.065276034
248	0x3e0a2ce3	0.13493685
249	0x3d9195d8	0.071086586
250	0x3d0540af	0.03253239
251	0x3da78472	0.08179559
252	0xbe03b601	-0.12862398
253	0xbd9b5ac4	-0.075856715
254	0x3e82c8ba	0.25543767
255	0xbcd39778	-0.025829062

down3.maxpool_conv.1.conv_conv.0.bias f4 [48]
0	0xbbe0f0ee	-0.0068646586
1	0xbd20f3f5	-0.039295156
2	0x3d3c3a9f	0.045954343
3	0xbd42ced1	-0.047560517
4	0xbd6beae3	-0.057597052
5	0x3ce46358	0.027879402
6	0x3ca32e26	0.019919466
7	0xbd201382	-0.039081104
8	0xbd483fcf	-0.048888978
9	0x3b1b2286	0.00236717
10	0xbc439f24	-0.011939798
11	0xbb9b73d7	-0.004744034
12	0x3ce7181b	0.028209737
13	0x3a32cc73	0.00068206264
14	0xbd373f9c	-0.044738397
15	0xbd755b3a	-0.059901454
16	0x3c99bb4a	0.018766064
17	0x3d35d6f1	0.044394437
18	0x3a917adc	0.0011099237
19	0xbcbe90d9	-0.023262428
20	0xbd47df88	-0.04879716
21	0x3b4776d3	0.0030435815
22	0x3cad1adc	0.021130972
23	0xbd1a3c6a	-0.03765527
24	0xbce6f10b	-0.02819111
25	0x3bed89f3	0.007249111
26	0xbcb264b4	-0.021776535
27	0x3d25ab0f	0.040446337
28	0xbbec80f1	-0.0072175195
29	0xbce55571	-0.027994843
30	0x3d6dcec2	0.058058508
31	0xbd0155e4	-0.031576052
32	0x3c04e679	0.00811159
33	0x3bd7eda8	0.00658961
34	0x3d5a151e	0.053242795
35	0xbd5cbebd	-0.05389284
36	0xbd031849	-0.032005582
37	0x3d26609c	0.040619478
38	0xba761190	-0.0009386772
39	0xbc667b6f	-0.014067515
40	0xbd416dc8	-0.047223836
41	0x3b40e6a9	0.002943436
42	0xbd51e10e	-0.05124002
43	0x3d085faf	0.033294376
44	0xbb7cb5b6	-0.0038560457
45	0x3d00e74c	0.031470582
46	0xbca402f6	-0.020020943
47	0xbd499b7e	-0.049220555

down3.maxpool_conv.1.conv_conv.1.weight f4 [48]
0	0x3f4dd281	0.8039933
1	0x3f741625	0.9534629
2	0x3f5a3da6	0.8525032
3	0x3f801946	1.0007713
4	0x3f8a83b3	1.0821441
5	0x3f599e78	0.8500743
6	0x3f63274e	0.8873185
7	0x3f6a1a97	0.9144682
8	0x3f4dac7a	0.80341303
9	0x3f551656	0.83237207
10	0x3f8425cf	1.0324038
11	0x3f68e085	0.9096759
12	0x3f69a69a	0.9126984
13	0x3f85ed86	1.0463111
14	0x3f634ca4	0.8878882
15	0x3f77a6fc	0.9673917
16	0x3f760160	0.9609585
17	0x3f6a03d7	0.9141211
18	0x3f83a727	1.0285386
19	0x3f7d44d3	0.9893314
20	0x3f5772d1	0.8415957
21	0x3f6c8eff	0.92405695
22	0x3f55723e	0.83377445
23	0x3f6b98e9	0.920302
24	0x3f6c06bc	0.92197776
25	0x3f744346	0.9541515
26	0x3f72d7d4	0.9486058
27	0x3f427129	0.7595392
28	0x3f89776e	1.0739572
29	0x3f3a9f6c	0.7289951
30	0x3f714bc9	0.94256264
31	0x3f692463	0.91071147
32	0x3f5bd84b	0.8587691
33	0x3f63f629	0.89047486
34	0x3f59eb21	0.85124403
35	0x3f8c8147	1.0976952
36	0x3f81ec28	1.0150194
37	0x3f7f2845	0.9967082
38	0x3f8b9e29	1.0907642
39	0x3f6cf215	0.9255689
40	0x3f77a053	0.9672901
41	0x3f80b543	1.0055317
42	0x3f6b376c	0.9188144
43	0x3f852479	1.0401756
44	0x3f5b4fc8	0.8566861
45	0x3f60a367	0.8774933
46	0x3f868bc3	1.0511402
47	0x3f688835	0.90832835

down3.maxpool_conv.1.conv_conv.1.bias f4 [48]
0	0xbecd20bd	-0.4006404
1	0xbea4a533	-0.32157287
2	0xbeab885f	-0.3350248
3	0xbeed6f72	-0.4637409
4	0xbedc0087	-0.42969152
5	0xbeca33f7	-0.3949277
6	0xbecc90c2	-0.3995419
7	0xbed9174f	-0.42400596
8	0xbea103b6	-0.31448144
9	0xbea6cf29	-0.32579926
10	0xbedee212	-0.43531853
11	0xbf278677	-0.6543955
12	0xbf08d04f	-0.53442854
13	0xbef0f9d1	-0.47065595
14	0xbe8ed9aa	-0.2790044
15	0xbeae5723	-0.34050855
16	0xbeaf2e8b	-0.34215197
17	0xbead6bba	-0.3387125
18	0xbf08e7f2	-0.5347892
19	0xbf255acf	-0.6459169
20	0xbf1d9d96	-0.6156858
21	0xbec33b97	-0.381314
22	0xbecdafff	-0.40173337
23	0xbebbe114	-0.36695158
24	0xbeac406d	-0.33642903
25	0xbf0d5f05	-0.55223113
26	0xbec94f0f	-0.3931813
27	0xbec84548	-0.39115357
28	0xbf07a45f	-0.52985185
29	0xbed54ac2	-0.41658598
30	0xbead6eb4	-0.33873522
31	0xbedbc63b	-0.42924675
32	0xbee41743	-0.44548997
33	0xbf1dae69	-0.61594254
34	0xbf106f09	-0.56419426
35	0xbeee5243	-0.46547136
36	0xbeb6965a	-0.35661584
37	0xbec4c535	-0.38431707
38	0xbeb18dbf	-0.34678456
39	0xbefa83b3	-0.48928604
40	0xbf04f4eb	-0.51936215
41	0xbeec6aa9	-0.46175125
42	0xbeb7a478	-0.35867667
43	0xbefa61e2	-0.48902804
44	0xbeff255c	-0.4983319
45	0xbedd75b3	-0.4325386
46	0xbf070376	-0.52739656
47	0xbed26bf1	-0.41097978

down3.maxpool_conv.1.conv_conv.1.running_mean f4 [48]
0	0xc04c90fc	-3.1963491
1	0xbed28548	-0.4111731
2	0xbeefd52b	-0.46842322
3	0xbf4c3e15	-0.7978223
4	0xc04cfd99	-3.2029784
5	0xbfb5f27c	-1.4214625
6	0x3ed7a462	0.42117602
7	0x3f80fb3c	1.0076671
8	0x4021957d	2.524749
9	0x3e81bbf0	0.25338697
10	0xc0913c8c	-4.538641
11	0xbfc400e6	-1.5312774
12	0xbfdee616	-1.7413967
13	0xbfccb74c	-1.5993438
14	0xbfaa45c3	-1.330254
15	0xc04249f2	-3.0357633
16	0xbe261d7e	-0.16222188
17	0xbfc29aca	-1.5203488
18	0xc063ca37	-3.5592172
19	0xc0274ceb	-2.6140697
20	0x3f448ef2	0.7678062
21	0xbf34ded4	-0.7065251
22	0x3dd548ac	0.10414252
23	0xbf3e55fc	-0.7434995
24	0xc00ab91b	-2.167548
25	0xc09fd727	-4.9950137
26	0xbf6f647a	-0.9351269
27	0x402a18ea	2.6577706
28	0xc072b2ee	-3.792171
29	0xbfabf8ff	-1.3435363
30	0x3f5e12d1	0.8674746
31	0xbfd1bdb0	-1.6386013
32	0xbf338b78	-0.7013469
33	0xc053a3f5	-3.3068821
34	0xc066ae1c	-3.6043768
35	0xbfe0c04e	-1.7558687
36	0xc02c1a00	-2.689087
37	0xbe0ed5ee	-0.13948795
38	0xc0318094	-2.7734728
39	0xbf3f1591	-0.7464228
40	0xbf7a843a	-0.9785801
41	0xbf17376b	-0.59068936
42	0xbffc2415	-1.9698511
43	0xc01cd22f	-2.4503286
44	0xbfae9971	-1.3640577
45	0xc03f9f57	-2.9941003
46	0xbfb6ac0b	-1.4271253
47	0xbf131b14	-0.5746319

down3.maxpool_conv.1.conv_conv.1.running_var f4 [48]
0	0x408633e8	4.193836
1	0x408d34fe	4.412719
2	0x407b995f	3.931236
3	0x4045282e	3.0805774
4	0x40e6b80d	7.209967
5	0x40487e29	3.1327002
6	0x40789d04	3.8845835
7	0x406384d1	3.5549815
8	0x40c0f365	6.0297112
9	0x40bc9083	5.8926406
10	0x40a0620e	5.0119696
11	0x40307ee8	2.7577457
12	0x403a72d1	2.9132578
13	0x40867b86	4.2025785
14	0x402f0f68	2.7353153
15	0x4099b96b	4.803884
16	0x408dd4f6	4.432246
17	0x408bda8e	4.370429
18	0x40583611	3.3783
19	0x405ee349	3.4826224
20	0x4052395b	3.2847507
21	0x40195b34	2.3961916
22	0x4098812b	4.7657676
23	0x401e11ec	2.4698439
24	0x4047ea80	3.1236877
25	0x408d1807	4.409183
26	0x40480e33	3.1258667
27	0x400cb849	2.1987479
28	0x40ba5331	5.822655
29	0x40221566	2.532556
30	0x4128cc4a	10.549875
31	0x403338bb	2.8003376
32	0x405607b1	3.3442194
33	0x405a2ba0	3.4089127
34	0x4033f30f	2.8117101
35	0x40b5c763	5.680589
36	0x40c15c0e	6.042487
37	0x4080c106	4.0235624
38	0x40b965ce	5.7936773
39	0x4095749d	4.670485
40	0x403d323e	2.9561915
41	0x407de266	3.9669433
42	0x405f6e90	3.4911232
43	0x40383831	2.8784297
44	0x402ca303	2.6974494
45	0x4086f6ee	4.217643
46	0x408426b9	4.129727
47	0x4042a0ea	3.0410714
